model/real_estate_model.pth (torch, 24888 bytes, 7 tensors)

input_to_hidden.weight f4 [50, 4]
00000000: 9089 c9be 1296 b8be ec44 7e3e c032 233c
00000010: 75ee a2be e17b 9c3e 57bf 123e 11cd 9d3d
00000020: 2c9b e43e 7f50 f93e 68a2 dc3e 7fab c33e
00000030: f1c2 203d b9cc 14be 72ed 973d 59e3 a8be
00000040: 9a9e 2a3e d865 e93e 1b5e 223e 6abd 063f
00000050: 288a 69be 28fa 8abe 907c c63e b7c4 75be
00000060: 23cc 6cbe d530 33bd 00b5 e93e 1222 c13e
00000070: cadd 2bbe 491d 453e 7e9c 953e 127b a3bd
00000080: fcfe d13e f7d8 8cbc c9cc a43e 0238 a23e
00000090: 1ab6 64be 62a3 323d 2abd 6fbe 1b77 12be
000000a0: 2708 97be 7520 aa3d 0e82 55bd 6953 dc3e
000000b0: 0628 93be 1855 e6be 0845 2fbe d963 433e
000000c0: 0994 ebbe 63a7 363e 3309 2d3d 0a85 383e
000000d0: 1ed6 babe 6a39 a83e 6788 ab3e 5c76 943e
000000e0: 26a8 f53d f031 e23d c051 fb3c 93ba bfbe
000000f0: 8d33 c0be 1185 cdbe b94c 35be add7 96be
00000100: ad7f a7be f476 eb3e 8004 903e bef5 833e
00000110: 83c6 cfbe 3a24 ddbb 7b81 80bd d9e0 a83e
00000120: af9d 54be 4587 96be 2a90 053e 7221 713e
00000130: 0195 83be 6466 c43e 597a e23d 28c7 f83e
00000140: 5cf0 d33e bc5d d1be c9b7 59be b1d7 07bd
00000150: 9caf 1d3e 3123 d5bd 43d3 ba3d 5747 fc3e
00000160: 6f42 42be c06d aabe 24f6 57be 750d 08bc
00000170: 27bb b43e e92c 09be 9346 a7be 824f 0c3e
00000180: d08a b63e f215 debe 820c cf3e f663 27bd
00000190: 2676 8dbd 5f7e e93e 0efb 5fbe 8e9a bbbb
000001a0: 33e4 91be ee0e 27be c6fc f2be 5b20 c43e
000001b0: 3fdf 7a3e 73b3 dd3e 89ac d53e 029a 84be
000001c0: 8b1c 57be 2130 5abd eeb3 b53e 8a89 b53d
000001d0: 16e8 a73e 8464 15be d519 e6be 39af c23d
000001e0: fa40 e9be 311c ac3e cf23 0f3d ad83 94be
000001f0: 9609 a63e dd19 08be cd8c a6be 724f ebbe
00000200: c10b c73e 1766 e6bd a20e ccbe 9174 d53e
00000210: 417d 043f c13e a03e b168 bbbe 56b7 5bbd
00000220: 442e 0a3f c1ba 35be 08ba 9abe b9c2 e13d
00000230: 4645 bf3e 6ccc ddbe b824 f2bd 6c35 f0be
00000240: 90eb 233d fc56 153e e41e 29be 9809 a6be
00000250: 90cf 49bd c02d d73d 3c24 d6be 609a ec3d
00000260: d259 86be d87a 5f3e 709d 48bd a6ab c2be
00000270: 1754 e3bb 3c18 84be f556 b6bd 6746 c23d
00000280: 9545 c93e 14a0 d73d 87d9 be3e 7bf7 96be
00000290: 8afb 71be 200a 5cbe 921d 533e 8a2e 52be
000002a0: 4d6f 33be eaa5 153d 28b8 a63e fd3d cb3e
000002b0: efd5 d8bd 780c 4d3e fd1b f63e d293 943e
000002c0: b6d9 a6be c4bc a33d fd60 e8be 65d3 2a3e
000002d0: a694 be3e fef8 8c3e e42e d1be d038 713e
000002e0: e55e fdbe c50b fa3e 5f15 b73e 7ee0 2e3e
000002f0: 31fa aaba bc31 d0be 711b e4be 208f 163e
00000300: fb4a 5e3d d977 ddbe 0fdb b6bd bc72 6e3e
00000310: 5c69 76bd b70d a8bd 6ef2 e23e 83fe c73e
-0.39362764 -0.36051995 0.24830979 0.00996083 -0.31822553 0.30563262 0.14330803 0.07705129
0.44649637 0.48694226 0.43092656 0.3821678 0.03924841 -0.1453122 0.07418336 -0.32985952
0.16662064 0.45585513 0.15856211 0.5263277 -0.22806609 -0.2714398 0.3876691 -0.24000822
-0.23124747 -0.04374774 0.45645905 0.37721306 -0.16783825 0.19249453 0.29220957 -0.07982458
0.4101485 -0.0171933 0.3218749 0.31683356 -0.22335091 0.043612845 -0.23412004 -0.14303248
-0.29498407 0.08306972 -0.052125983 0.43032387 -0.28741473 -0.44986796 -0.17116177 0.19081058
-0.4601138 0.1783729 0.0422451 0.180195 -0.36491483 0.32856303 0.33502504 0.2899655
0.119949624 0.11044681 0.03067863 -0.37447032 -0.3753933 -0.40140584 -0.17705049 -0.29461423
-0.32714596 0.45989192 0.28128433 0.25773424 -0.4058114 -0.0067487033 -0.062746964 0.32984045
-0.20763277 -0.29400077 0.13043275 0.23547915 -0.25699618 0.38359368 0.11058492 0.48589444
0.41394317 -0.40891826 -0.21261515 -0.033164684 0.15399021 -0.10407103 0.09122326 0.49273178
-0.18970655 -0.33286858 -0.21089989 -0.00830399 0.35299036 -0.13396038 -0.3267103 0.13702205
0.3565278 -0.43376118 0.4043923 -0.040866815 -0.06907301 0.45604226 -0.21873114 -0.0057252115
-0.28494415 -0.16314289 -0.47458476 0.38305935 0.24499224 0.4330097 0.41733196 -0.2589875
-0.21006982 -0.053268556 0.35488838 0.08864124 0.32794255 -0.14589125 -0.44941583 0.09506077
-0.45557386 0.33615258 0.03494626 -0.2900671 0.32429188 -0.13291116 -0.32529297 -0.4595905
0.38876155 -0.11249941 -0.39854914 0.41690496 0.5175362 0.31297877 -0.3660331 -0.05364164
0.53976846 -0.17747022 -0.30220056 0.110234685 0.3735754 -0.43320024 -0.1182341 -0.46915758
0.04001957 0.14583963 -0.1651569 -0.32429194 -0.049270213 0.10506773 -0.4182452 0.11552882
-0.26240402 0.21824205 -0.04897827 -0.38021582 -0.0069375145 -0.2579974 -0.089033045 0.094860844
0.393109 0.10528579 0.37275335 -0.29485688 -0.23631111 -0.21488237 0.20616749 -0.20525566
-0.17522927 0.03653518 0.32562375 0.3969573 -0.105876796 0.20024288 0.48068228 0.29019028
-0.32587975 0.079949886 -0.45386496 0.16682203 0.37222785 0.27533716 -0.40856087 0.23556828
-0.4948646 0.48837104 0.35758492 0.17077824 -0.0013044534 -0.40662944 -0.44552186 0.14703035
0.054270726 -0.432555 -0.08928501 0.23285955 -0.060159072 -0.08205741 0.44325584 0.39061365

input_to_hidden.bias f4 [50]
00000000: b6ab 97be f11c 4d3c 3fd3 963e bc17 e8bc
00000010: b650 da3e fbf3 85be 5f73 bd3e 5f66 83be
00000020: f47d de3e d748 f33e 8829 e1bd 3421 4abd
00000030: 5d74 d83e 0818 273e d35d a43d a358 9e3e
00000040: 8147 f13e 833c ae3e 393b 8c3e 143c f9bb
00000050: 6c3a 1d3c 68b3 b5be ea89 933e 6b59 f5bd
00000060: bf14 bdbd 590b 47be 76a7 8d3e e057 fcbe
00000070: 8756 673e 1d27 563e 7475 e63e e96d d03c
00000080: 31c2 e1be 2625 2ebe 8015 9a3e 3c22 f3be
00000090: ec7d 27be 4208 eabe c8dc bdbe b08e 82bc
000000a0: da0c ec3e 7a6e 053e 212a b4be f3f3 69be
000000b0: ad15 903e b3fb c3bd 7a05 f7bc 81eb fd3e
000000c0: c0a6 a83e 7fc4 d4be
-0.29623193 0.012519107 0.29458043 -0.02833163 0.42639703 -0.26162705 0.37002084 -0.2566404
0.4345547 0.4751651 -0.109942496 -0.04934807 0.42276278 0.16317761 0.08025708 0.30927
0.47124866 0.34030542 0.27388933 -0.007606039 0.009596448 -0.3548844 0.28816158 -0.11979946
-0.09232473 -0.19437923 0.27666825 -0.49285793 0.22591601 0.20913358 0.45011485 0.025443034
-0.4409347 -0.17006359 0.30094528 -0.47487056 -0.16356629 -0.45709425 -0.37082505 -0.01593718
0.46103555 0.13030425 -0.35188392 -0.22846965 0.28141537 -0.09569492 -0.030153979 0.49593738
0.3293972 -0.41556165

hidden_layer_1.weight f4 [50, 50]
00000000: 3f3e 093d dcd2 103e fb68 e0bc 1e12 a5bd
00000010: 9305 fe3d 1d72 a9bd 3778 0fbd af28 e73d
00000020: 4fd3 aebd 19bf a13d fd2c f2bd c6dd a33d
00000030: c6f7 b4bd 4910 be3c 9b68 04be 6c09 183c
00000040: f5c2 5e3d 3dd9 02bd 3fa2 11bc e652 bf3c
00000050: ef22 933d c175 c2bc b922 ca3d 5ba7 a4bc
00000060: b7b2 0bbe f146 49bc bff1 f6bd f489 f3bd
00000070: 6bbc 563d 958f cd3c fcc8 66bd 2f31 1d3d
00000080: 6a6e c13d bbdc 81bc 932b 1cbd 808f ce3d
00000090: f3a3 ddbb 5753 e73d 7a19 2a3c 791e ffbd
000000a0: 762b 89bd 2b00 c4bd 5872 013e 1888 1f3d
000000b0: 29d5 023d 3287 0e3e 55a9 89bd fdf5 8dbb
000000c0: b241 203d fcc8 1cbb 92a0 bd3d 75c2 5dbd
000000d0: 8e59 0abd 9ae5 bbbd c273 b43d 31aa e4bd
000000e0: 8fbf d4bd 2225 a53c 6c61 ed3d 646f b0bd
000000f0: d943 e73d 9a1a 023e 31fd 7fbd 38e5 923b
00000100: 1818 053e b69f beba eba1 343d b11b e73c
00000110: 8edb b83d 7fe7 29bc 9458 abbd d5dd 113e
00000120: b8e0 7c3d f0be cdbd ed08 f4bc 8b01 b8bd
00000130: f0a7 a0bd cfa2 9ebd 89bb ac3b df96 e73d
00000140: 3d15 e9bd 12a2 03be 8c8a 45bd 51f3 ab3d
00000150: 6580 c8bd 3953 013e 1de4 06be b876 f5bd
00000160: f0db 03be a7cf 2c3d a8ae b13d 5291 503d
00000170: 9f86 ce3d 2eee 53bd 93b1 f13c a253 853d
00000180: 9346 86bd 5043 01be 634a e6bd 0ebb eabd
00000190: a0af 25bd f7b3 9a3d 7c38 88bd 35cf 6d3d
000001a0: 9957 1a3e 1638 ed3d 2c04 c33d 477b 83bd
000001b0: 0eb6 193e 6459 023e ab82 46bd 8a1f aabc
000001c0: f060 e2bd dcba 0b3d 5a00 10bd 0d04 89bd
000001d0: f62d e83d c3e1 babc 1eca b53d 41df ddbd
000001e0: 7fa8 93bd c215 9dbc 532b cbbc 5c27 dabc
000001f0: 48c1 c53d 442a 223d 6d6c 8e3c cb8b 1f3d
00000200: bdb1 9e3b 6af5 a43d 5232 c03c b1b2 003e
00000210: a66c d63d 6021 95bd 929e e23d 04e8 e73d
00000220: 2957 0c3e d53a c23c b9ee e9bd 49e8 8f3d
00000230: dc63 1a3d 27e0 9a3d 4abe 753c d8b7 f13d
00000240: 21a1 c5bd 7e27 06bd 137c 343d a0b4 bd3d
00000250: cbeb dfbd e0f1 d93d 7290 c2bd 6cc9 893d
00000260: aa9a 013e 7e7e 9bbb b112 da3d f599 0fbe
00000270: 006c 893d 2d09 1c3d 6137 7d3d 88e6 65bd
00000280: 110b dbbc b028 e6bc cd69 6dbd d5f9 c53d
00000290: 2e99 56bd 6e67 0f3c a7f6 803d ec82 ee3d
000002a0: dcae 04bd 657f 7dbd e002 e6bd 72ea b93d
000002b0: 48b2 e4bd 995c 82bd 4666 093e c89a b2bd
000002c0: 8c84 f0bd 788b 29bd 2a1e 4c3d f0f4 123d
000002d0: 459d e9bd 0e2c 24bd add1 bebd efd7 f53d
000002e0: 8df0 f73d 5416 edbd 5eb4 2abd de39 5bbc
000002f0: 7e25 e63d 64a9 0fbe c79a e33c 5dc1 853d
00000300: e278 093d 715c 96bd ffaf 92bd 458d 83bc
00000310: c7d1 683b 44df edbd fd5e 743d ef7d 17bd
00000320: 7bd2 623d 54a4 723d e3c2 eabd 9ac8 ecbd
00000330: 56b4 79bd b13e f7bc 78d7 cdbd 96e7 fb3d
00000340: a98b aebd 4f46 23b9 0494 febc 10a4 c83d
00000350: a1db b0bd bdd0 613d 0da9 113e baa7 653c
00000360: cf59 6e3d 0eee 11bd b505 023e 3f85 a8bc
00000370: b3d8 e0bd e420 373d 09a3 fa3b 6424 713c
00000380: 523d 79bd a03c 0abe 7350 06be 8909 7abd
00000390: fb91 763c 59bd 5a3d c596 053e f548 9abd
000003a0: 0441 143d 1ca5 8e3d 1036 a23d 5a7a 3ebd
000003b0: dd12 a23d ff3b 093e 7c72 bdbd c06f 023e
000003c0: 867b d23d fa8a 0ebe 0199 a8bd 9feb f9bd
000003d0: 7ec0 073e 6510 84bb cec2 a93d c979 d73d
000003e0: 7be6 803c e8f5 94bd b9f9 193d 539d 573b
000003f0: 6b75 96bc 77a7 e73d cd16 0f3d ed51 973c
0.033506628 0.14142936 -0.027393809 -0.08060096 0.12403407 -0.082737185 -0.035026755 0.11287057
-0.08536398 0.07897777 -0.11824987 0.08001284 -0.088363215 0.023201125 -0.12930529 0.00927959
0.054385144 -0.031945456 -0.00888878 0.023354959 0.071843974 -0.02373779 0.09869904 -0.020099333
-0.13642393 -0.01228498 -0.12057828 -0.11891547 0.052425783 0.02509288 -0.056344017 0.038376983
0.09444888 -0.015852323 -0.038127493 0.10085964 -0.006763929 0.11295193 0.010382051 -0.12456984
-0.06697743 -0.095703445 0.12641275 0.03894815 0.031941567 0.1391876 -0.06721751 -0.0043323026
0.039125152 -0.0023923507 0.09259142 -0.054140527 -0.033776812 -0.091746524 0.088111416 -0.11165274
-0.103880994 0.020159308 0.115908474 -0.08614996 0.11292238 0.1270546 -0.06249732 0.0044828914
0.12997472 -0.0014543447 0.04409973 0.028211446 0.09026252 -0.010370134 -0.08366504 0.14244778
0.061737746 -0.10046184 -0.029789412 -0.08984669 -0.078445315 -0.07745897 0.0052713794 0.11308073
-0.11381004 -0.12854794 -0.04822783 0.08396018 -0.09790114 0.12629403 -0.13172956 -0.119855344
-0.12876868 0.04219022 0.08675891 0.05091984 0.10084271 -0.051740818 0.02950362 0.06510092
-0.0655643 -0.12623334 -0.11244657 -0.11461459 -0.040450692 0.07553857 -0.066513985 0.058058936
0.15072478 0.11582963 0.0952228 -0.06419998 0.15010855 0.12729412 -0.04846446 -0.020766992
-0.110536456 0.03411375 -0.035156585 -0.06690226 0.11336891 -0.02281273 0.088764414 -0.10833598
-0.072098725 -0.019175414 -0.024800932 -0.026630096 0.09656006 0.03959109 0.017385686 0.038951676
0.0048429654 0.080546215 0.023461495 0.12568165 0.10469942 -0.072817564 0.11065401 0.1132355
0.13705124 0.023709694 -0.11422486 0.07026727 0.03769289 0.07562285 0.014998982 0.118026435
-0.096498735 -0.032752506 0.04406364 0.09262967 -0.10933646 0.10641837 -0.09500207 0.06727871
0.12656656 -0.0047453037 0.10648096 -0.14023574 0.067100525 0.03809469 0.06182039 -0.056128055
-0.026738675 -0.028095573 -0.057962228 0.09666792 -0.052392177 0.008752687 0.06297045 0.11646065
-0.03239332 -0.06188907 -0.11231017 0.0907792 -0.11166817 -0.06365318 0.1341792 -0.087209284
-0.11744031 -0.041392773 0.049833454 0.03587812 -0.1140695 -0.040081076 -0.09317336 0.12004077
0.12106428 -0.115765244 -0.041675918 -0.013380496 0.1123762 -0.14029461 0.027783765 0.06531022
0.03356255 -0.073418505 -0.07162475 -0.016058573 0.0035525428 -0.1161485 0.0596609 -0.036985334
0.05537651 0.059238747 -0.11462953 -0.11561699 -0.060962997 -0.03018126 -0.10050863 0.12300031
-0.08522732 -0.00015571083 -0.031076439 0.097969174 -0.08635641 0.05513071 0.14224644 0.01401704
0.058191117 -0.035627417 0.1269749 -0.02057135 -0.10978832 0.0447091 0.00764883 0.014718149
-0.060849495 -0.13499689 -0.13116626 -0.06104425 0.015049453 0.053403232 0.13045795 -0.07533447
0.036194816 0.06965086 0.07920468 -0.046503402 0.07913754 0.13401793 -0.09250352 0.12737942
0.102774665 -0.13920203 -0.08232308 -0.12203144 0.13257024 -0.0040302747 0.08289109 0.105212756
0.015734902 -0.072734654 0.03759167 0.003290017 -0.018366536 0.11311238 0.034933854 0.018471682

hidden_layer_1.bias f4 [50]
00000000: bed2 8fbd f815 253d 3486 563d 4a5a 963d
00000010: a71b f53d 7c31 b3bd efde 29bb 8289 ecbd
00000020: 47b6 953d 8f23 53bd c412 b63d d6ef 3cbd
00000030: bd19 23bc dbfd ba3d e81f b03b 3221 4f3d
00000040: 2d2a 063e ea22 8b3d 182a 003d 6014 01bc
00000050: 0bc5 a03b 8dfb 95bd 3a53 1cbd a4bd 273e
00000060: 0189 043e de54 46bd 2e17 e7bd c0ee 8fbd
00000070: a627 013e 08db 6fbc 84f7 f3bc 145a 063e
00000080: bc7c 03be 65d6 cf3d 2440 adbd b5f7 173d
00000090: 0a45 98bd 28be e5bd 8040 b33d c5d3 2a3d
000000a0: 61bf f93d b414 e53d c8d2 263d b137 c3bd
000000b0: 9f1f 603d 57e0 9b3d c100 013e 28ac b63d
000000c0: f2dd bebd e5cb a43d
-0.07022618 0.040304154 0.05237408 0.0734144 0.11968165 -0.08749673 -0.0025920232 -0.11549665
0.07310157 -0.051547583 0.08890298 -0.046127163 -0.009954867 0.0913045 0.0053748973 0.050568767
0.13102026 0.06793769 0.031290144 -0.007878393 0.004906302 -0.0732337 -0.03816531 0.16380936
0.12942888 -0.04842078 -0.11283718 -0.0702796 0.12612781 -0.014639623 -0.02978111 0.131203
-0.12840551 0.101483144 -0.084594995 0.037101466 -0.07435043 -0.1121791 0.08752537 0.041705865
0.12194706 0.111855894 0.04072836 -0.09532107 0.054717656 0.07611149 0.12597944 0.08919555
-0.093196765 0.08046702

hidden_layer_2.weight f4 [50, 50]
00000000: 6da8 4a3b 70d0 44bd ddcb 47bb dd27 56bd
00000010: 7024 3cbd 5e49 d43c 7634 e93c 522b c13d
00000020: dd0c 1e3d 8859 08bd 1831 0ebe 0aaf 343c
00000030: 7327 b7bd 919e 27bd d464 553d edc6 2ebd
00000040: 3bea a03d 7e27 cbbc 196f 93bb c192 533c
00000050: 4ecc 4bbd 8670 07bd 890c aa3d 1f76 39bc
00000060: 3bf8 a1bd eb9d d5bd ee27 5cbd a7d0 d63c
00000070: fff8 2fbd 917a bcbc 0943 82bd 78d0 93bd
00000080: 4611 ebbd 5035 1a3d 0c27 86bb efb2 edbd
00000090: 6467 a9bd a411 043d 9605 4f3d 61cc 64bd
000000a0: 6f1e f53d c608 3a3c aadc 083d cdcf f03d
000000b0: d8a5 763d bb06 f43d e206 9dbb 87ed 6bbc
000000c0: 0c37 cdbd 0de3 0b3e 8171 b33c e67e ba3d
000000d0: ece7 133e 6935 ed3c 6383 21bd a300 0dbd
000000e0: 53cb bd3c 0501 ecbd c19f cc3d 82bb d43d
000000f0: 9681 3abd f3b0 fcbd 0068 ea3d 76d7 0ebe
00000100: 3018 9b3d e280 1abd 2521 d33d b2fb 033e
00000110: dd3e b6bd f3de d93d f2dd 293e c50a 0f3b
00000120: cd12 a23d 53af 4dbd a06f 3b3d 8904 c73d
00000130: a255 61bc 33a0 273e b027 5f3d 31f9 b43c
00000140: d05b 1ebd 898c 2f3d 8361 a8bd 10f0 2ebe
00000150: 4f85 183e cc01 0e3e 507a 1a3e 83f0 4e3c
00000160: 6cad c03d eb5f 353e 7e2b ee3c 5f0f c13c
00000170: 5935 87bd d343 e2bd 6b59 2abd dd7a b8bd
00000180: 19ab d13d 05e3 963c 070f b6bd 1d35 d7bc
00000190: 0384 8abd f317 c83d 5348 9d3d a4be bf3d
000001a0: d474 113d 9804 b23d c084 08be 9e57 bdbd
000001b0: 93e3 fabc 6260 d4bd 0ef1 0fbe 25e3 0dbe
000001c0: 9b46 ee3c 88a5 e73d 4a2d 1abd 969a 6b3d
000001d0: e5d0 7db9 6458 e9bd 621f eabd 4c1d febd
000001e0: 7d24 e3bd 84f1 12bc 3049 5f3d 94c0 d9bd
000001f0: c980 07bd 074f 85bc 86c9 f93d c9be 3a3c
00000200: 722e 833c 0da5 95bd 5c57 e8bd d2a7 d23d
00000210: b7ba 773b a2c6 e43d 4ee2 d3bc a202 98bc
00000220: 08de 5a3d 7da4 d13d 83ea 77bc a128 71bd
00000230: 9706 85bd 2041 58bd 02ec 97ba 7ab3 7f3d
00000240: 1b43 b9bd aff8 f63c adbc 4b3d 0fb0 d03d
00000250: 8f70 733d b322 023d deb5 34bd afee 4ebd
00000260: 98ec e33c e78b c2bd 42f5 0abe a818 01be
00000270: 6f60 98bd 816d d7bd 84d0 26bc 7255 ad3d
00000280: a3f4 afbd 646f 013d 4cd4 683c 42bf 0fbd
00000290: 0bec 80bc 3444 8bbd 96ec c13c 47d8 703d
000002a0: b6db 8abd 5a15 7dbd e7e6 0c3e bc7b d3bd
000002b0: 1cc8 0cbd 23ad e7bd 8cb1 e33d 2868 b43c
000002c0: 7a4b 4a3d 0521 b03d 162e 2ebd 6bd3 093c
000002d0: 4ad7 213c 3a26 a0bc 3c8f 9a3d 8832 a13c
000002e0: ac0f c53d 1b66 e43d 817b 083e 95b0 8d3d
000002f0: 714c b73d f862 b9bd 38af abbd d693 0f3e
00000300: 6a8d f03d 891f 23bd e2f8 a33d 1c29 803d
00000310: 829d d0bd 1140 a8bb be75 3a3d 4c88 69bd
00000320: 7844 723c bd7c 68ba da00 1d3b 40c0 263d
00000330: 17b5 083e 2b01 c23d a183 3abd 1933 acbd
00000340: 8022 edbc 6d46 b9bd c789 4e3d 7b44 043d
00000350: 444e bcbc 1bbd df3d 9c2d 493d ec0d 893d
00000360: 7b2e f73d 6761 7a3d a972 f73c 6821 f23b
00000370: 287b 14bb 43a7 63bd b24e a6bd 3956 763d
00000380: 6176 143e 06fb edbd cb76 7b3d 13c5 193c
00000390: 9617 333c 720a 353d 350f 8abd 0f19 6dbd
000003a0: 2466 30bd 3b47 1e3e f6ab f2bd 3cd5 9ebd
000003b0: e871 003e 12f3 c03d 4dca a53d 6524 35bd
000003c0: 584b ffbd 8294 bc3c 4872 af3c 83d3 7dbd
000003d0: 7122 913d 0e04 98bd 39a8 4e3d 8b13 70bd
000003e0: 86bc dabd 83a4 f5bd d175 8abd 0f5c ef3d
000003f0: 4336 973d 9563 b3bd 7d79 d03d a91d c6bb
0.0030923143 -0.048050344 -0.0030486502 -0.05228411 -0.045933187 0.02591389 0.028467398 0.09432091
0.038586486 -0.03328851 -0.13885915 0.011028061 -0.08943071 -0.040922705 0.05209811 -0.04267018
0.07857176 -0.024799105 -0.004499328 0.012913407 -0.049755387 -0.033066295 0.08303172 -0.011319666
-0.07908674 -0.10430511 -0.053749017 0.02622254 -0.04296207 -0.023007663 -0.06360442 -0.07217497
-0.11477904 0.0376485 -0.00409401 -0.116063945 -0.08271673 0.032243386 0.050542437 -0.055858973
0.11968695 0.011354631 0.033413567 0.11758385 0.060216755 0.11915346 -0.0047920803 -0.014399893
-0.10020265 0.13660832 0.021904709 0.09106235 0.1444394 0.028956132 -0.03943194 -0.034424435
0.023168242 -0.11523632 0.09991408 0.10387327 -0.04553374 -0.12338438 0.11445618 -0.1394938
0.07572973 -0.03772057 0.10309056 0.12888983 -0.08898709 0.10638227 0.16588572 0.0021826488
0.07913742 -0.05021603 0.04576075 0.09717662 -0.013753327 0.16369705 0.05448121 0.02209148
-0.038661778 0.042858634 -0.08221724 -0.17083764 0.14894603 0.13867873 0.15085721 0.012630585
0.094080776 0.17712371 0.029073473 0.0235669 -0.06601972 -0.11048093 -0.041589182 -0.09007809
0.102377124 0.018418798 -0.08889585 -0.026270444 -0.067634605 0.09770193 0.076798104 0.09362534
0.035511807 0.086922824 -0.1333189 -0.09245227 -0.030626094 -0.10369946 -0.14056799 -0.1385618
0.029086402 0.113108695 -0.037640847 0.05752047 -0.0002420578 -0.11393812 -0.11431767 -0.12407932
-0.11090944 -0.008968715 0.054513156 -0.106324345 -0.033081803 -0.016273035 0.12196641 0.011398026
0.016013358 -0.073068716 -0.113447875 0.102859154 0.00378005 0.11170699 -0.025864746 -0.018555943
0.0534344 0.10236452 -0.015131596 -0.058876637 -0.064953975 -0.052796483 -0.0011590722 0.06242702
-0.090460025 0.030147878 0.049740482 0.101898305 0.059433516 0.031771373 -0.044118755 -0.050520595
0.027822778 -0.094993405 -0.13570121 -0.12607062 -0.07440268 -0.10518933 -0.01018155 0.08463563
-0.085915826 0.03160037 0.014210772 -0.035094507 -0.015737554 -0.06800118 0.023672383 0.05880001
-0.06780188 -0.06178794 0.13759957 -0.10326335 -0.034370527 -0.1131232 0.11117849 0.022022322
0.049388386 0.08600048 -0.04252442 0.008412222 0.009877989 -0.019549478 0.07546851 0.019677415
0.0962213 0.111522876 0.13328363 0.06918446 0.08950127 -0.0905208 -0.0838303 0.14021239
0.117457226 -0.039824996 0.08006455 0.06257841 -0.10186292 -0.0051345904 0.045522444 -0.05701475
0.014786832 -0.0008868685 0.0023956806 0.040710688 0.1335033 0.09472879 -0.045535687 -0.084081836
-0.028947115 -0.09046636 0.050424363 0.03229187 -0.022986539 0.10924741 0.049115762 0.066921085
0.12069412 0.061128046 0.030206041 0.0073892362 -0.0022656415 -0.055579435 -0.08120479 0.060140822
0.14498283 -0.116201445 0.061392587 0.009385365 0.010930916 0.044199415 -0.06741182 -0.057885226
-0.04306616 0.1545686 -0.11849205 -0.07755515 0.12543452 0.09421362 0.080952264 -0.04422416
-0.124655426 0.023020033 0.021416798 -0.06196929 0.07086647 -0.07422648 0.0504534 -0.058612388
-0.10680489 -0.11994269 -0.06760753 0.11687481 0.073833965 -0.08759228 0.10179422 -0.0060460162

hidden_layer_2.bias f4 [50]
00000000: 7497 dbbd 99bd dabc d1a8 20bd 147b f0ba
00000010: fc56 463d 7feb 7abd 436e 14bd 8ca4 bebd
00000020: e9b3 1dbb 5a49 f3bb 0896 1e3e 968d babd
00000030: d608 dcbd 016a 88bd bf1c 1f3c dea8 5abd
00000040: 6950 6f3c 8a52 073d 7e1e fb3b 4ff1 a93d
00000050: fb34 8abd 0b9d 04be bd89 033e bd8e a63d
00000060: cfbe 28bd 4ae2 e7bd 9ec7 da3d 2222 dabc
00000070: ad8e ccbd f6e7 35bc ed79 df3d 2855 f73b
00000080: afa2 623d 4894 9fbd 3c6c 763d 8f42 d83c
00000090: 000c 7abc 1a15 fc3d b5a1 9c3d a913 e1bd
000000a0: 2ae5 99bd ca13 9abd 4792 a7bd 0591 91bd
000000b0: f635 2f3d a30b 03be b899 dabd 1368 f0bd
000000c0: 40bb fcbd 5a62 2d3d
-0.10722247 -0.026701735 -0.039223496 -0.0018347227 0.0484228 -0.061259743 -0.036237966 -0.093087286
-0.0024063534 -0.0074245157 0.1548692 -0.091090366 -0.10743873 -0.06660844 0.009711443 -0.0533837
0.014606574 0.0330377 0.007663547 0.08297979 -0.067483865 -0.12950532 0.12845512 0.08132694
-0.041197594 -0.11322458 0.10682605 -0.026627604 -0.09988151 -0.011102667 0.10911927 0.007547993
0.05533093 -0.07791954 0.060161814 0.026398925 -0.01526165 0.12308712 0.07648031 -0.10990078
-0.07514413 -0.07523306 -0.08182197 -0.071077384 0.04277607 -0.12797408 -0.10673851 -0.117386006
-0.123404026 0.042330123

hidden_to_output.weight f4 [1, 50]
00000000: 7dd7 463b 157d 923e afee 65bd df2b 433d
00000010: 53f2 0fbe 56b4 943e 602b bc3c 8328 103e
00000020: fba1 183d 7ec8 953d bb78 7fbe 8083 4abd
00000030: 3861 95bc 6548 adbd 88c2 733c 37f2 523e
00000040: e109 113d 5b2d 1ebe d28e 443e c69a f53d
00000050: 6aed 193e a77f 5f3d 8b99 e0bc b4a2 4a3d
00000060: 2d8a 92bc b354 513e d49d d93d c916 e7bd
00000070: 6817 e8bd 1bcc 2abe 1f24 b23d b14a 0fbe
00000080: 34b6 d23d 10ea 7c3e c22a 70be c69a 0abe
00000090: f053 13be fb13 cfbc 2a86 71bd 96cd e13d
000000a0: d9de 4b3e a55e 1abc 8d79 a5bd d35f f23c
000000b0: 2dca e0bd cbae 02be b6fc 143e f976 be3d
000000c0: b497 933d 885c 593d
0.0030340843 0.28611055 -0.05613583 0.04764926 -0.14057283 0.29043835 0.022969902 0.14077954
0.03726385 0.073136315 -0.24948399 -0.049441814 -0.018234834 -0.08461074 0.014877923 0.2060021
0.035409812 -0.15446989 0.19195107 0.11992411 0.15031973 0.054565098 -0.027416965 0.049471572
-0.017888153 0.20442466 0.106258065 -0.11283643 -0.113325894 -0.16679423 0.08698296 -0.13993336
0.10288659 0.24698663 -0.23453811 -0.13535604 -0.14387488 -0.025278082 -0.05896584 0.110255405
0.19909228 -0.009421979 -0.080798246 0.029586708 -0.10976062 -0.1276199 0.14549527 0.09300036
0.072066694 0.05306676
